…
model_DNN = Build_Model_DNN_Text(X_train_tfidf.shape[1], 20)
model_DNN.fit(X_train_tfidf, y_train,
                              validation_data=(X_test_tfidf, y_test),
                              epochs=10,
                              batch_size=128,
                              verbose=2)

predicted = model_DNN.predict(X_test_tfidf)

print(metrics.classification_report(y_test, predicted))
Model summary:
_________________________________________________________________
Layer (type)                 Output Shape              Param #
=================================================================
dense_1 (Dense)              (None, 512)               38400512
_________________________________________________________________
dropout_1 (Dropout)          (None, 512)               0
_________________________________________________________________
dense_2 (Dense)              (None, 512)               262656
_________________________________________________________________
dropout_2 (Dropout)          (None, 512)               0
_________________________________________________________________
dense_3 (Dense)              (None, 512)               262656
_________________________________________________________________
dropout_3 (Dropout)          (None, 512)               0
_________________________________________________________________
dense_4 (Dense)              (None, 512)               262656
_________________________________________________________________
dropout_4 (Dropout)          (None, 512)               0
_________________________________________________________________
dense_5 (Dense)              (None, 512)               262656
_________________________________________________________________
dropout_5 (Dropout)          (None, 512)               0
_________________________________________________________________
dense_6 (Dense)              (None, 20)                10260
=================================================================
Total params: 39,461,396
Trainable params: 39,461,396
Non-trainable params: 0
_________________________________________________________________
Output:
Train on 11314 samples, validate on 7532 samples
Epoch 1/10
 - 16s - loss: 2.7553 - acc: 0.1090 - val_loss: 1.9330 - val_acc: 0.3184
Epoch 2/10
 - 15s - loss: 1.5330 - acc: 0.4222 - val_loss: 1.1546 - val_acc: 0.6204
…
model_RNN = Build_Model_RNN_Text(word_index,embeddings_index, 20)

model_RNN.fit(X_train_Glove, y_train,
                              validation_data=(X_test_Glove, y_test),
                              epochs=10,
                              batch_size=128,
                              verbose=2)

predicted = Build_Model_RNN_Text.predict_classes(X_test_Glove)

print(metrics.classification_report(y_test, predicted))
Model summary:
_________________________________________________________________
Layer (type)                 Output Shape              Param #
=================================================================
embedding_1 (Embedding)      (None, 500, 50)           8960500
_________________________________________________________________
gru_1 (GRU)                  (None, 500, 256)          235776
_________________________________________________________________
dropout_1 (Dropout)          (None, 500, 256)          0
_________________________________________________________________
gru_2 (GRU)                  (None, 500, 256)          393984
_________________________________________________________________
dropout_2 (Dropout)          (None, 500, 256)          0
_________________________________________________________________
gru_3 (GRU)                  (None, 500, 256)          393984
_________________________________________________________________
dropout_3 (Dropout)          (None, 500, 256)          0
_________________________________________________________________
gru_4 (GRU)                  (None, 256)               393984
_________________________________________________________________
dense_1 (Dense)              (None, 20)                5140
=================================================================
Total params: 10,383,368
Trainable params: 10,383,368
Non-trainable params: 0
_________________________________________________________________
Output:
Train on 11314 samples, validate on 7532 samples
Epoch 1/20
 - 268s - loss: 2.5347 - acc: 0.1792 - val_loss: 2.2857 - val_acc: 0.2460
Epoch 2/20
 - 271s - loss: 1.6751 - acc: 0.3999 - val_loss: 1.4972 - val_acc: 0.4660
…
                              validation_data=(X_test_Glove, y_test),
                              epochs=15,
                              batch_size=128,
                              verbose=2)

predicted = model_CNN.predict(X_test_Glove)

predicted = np.argmax(predicted, axis=1)


print(metrics.classification_report(y_test, predicted))
Model:
__________________________________________________________________________________________________
Layer (type)                    Output Shape         Param #     Connected to
==================================================================================================
input_1 (InputLayer)            (None, 500)          0
__________________________________________________________________________________________________
embedding_1 (Embedding)         (None, 500, 50)      8960500     input_1[0][0]
__________________________________________________________________________________________________
conv1d_1 (Conv1D)               (None, 499, 128)     12928       embedding_1[0][0]
__________________________________________________________________________________________________
conv1d_2 (Conv1D)               (None, 498, 128)     19328       embedding_1[0][0]
__________________________________________________________________________________________________
conv1d_3 (Conv1D)               (None, 497, 128)     25728       embedding_1[0][0]
__________________________________________________________________________________________________
conv1d_4 (Conv1D)               (None, 496, 128)     32128       embedding_1[0][0]
__________________________________________________________________________________________________
conv1d_5 (Conv1D)               (None, 495, 128)     38528       embedding_1[0][0]
__________________________________________________________________________________________________
max_pooling1d_1 (MaxPooling1D)  (None, 99, 128)      0           conv1d_1[0][0]
__________________________________________________________________________________________________
max_pooling1d_2 (MaxPooling1D)  (None, 99, 128)      0           conv1d_2[0][0]
__________________________________________________________________________________________________
max_pooling1d_3 (MaxPooling1D)  (None, 99, 128)      0           conv1d_3[0][0]
__________________________________________________________________________________________________
max_pooling1d_4 (MaxPooling1D)  (None, 99, 128)      0           conv1d_4[0][0]
__________________________________________________________________________________________________
max_pooling1d_5 (MaxPooling1D)  (None, 99, 128)      0           conv1d_5[0][0]
__________________________________________________________________________________________________
concatenate_1 (Concatenate)     (None, 495, 128)     0           max_pooling1d_1[0][0]
                                                                 max_pooling1d_2[0][0]
                                                                 max_pooling1d_3[0][0]
                                                                 max_pooling1d_4[0][0]
                                                                 max_pooling1d_5[0][0]
__________________________________________________________________________________________________
conv1d_6 (Conv1D)               (None, 491, 128)     82048       concatenate_1[0][0]
__________________________________________________________________________________________________
dropout_1 (Dropout)             (None, 491, 128)     0           conv1d_6[0][0]
__________________________________________________________________________________________________
max_pooling1d_6 (MaxPooling1D)  (None, 98, 128)      0           dropout_1[0][0]
__________________________________________________________________________________________________
conv1d_7 (Conv1D)               (None, 94, 128)      82048       max_pooling1d_6[0][0]
__________________________________________________________________________________________________
dropout_2 (Dropout)             (None, 94, 128)      0           conv1d_7[0][0]
__________________________________________________________________________________________________
max_pooling1d_7 (MaxPooling1D)  (None, 3, 128)       0           dropout_2[0][0]
__________________________________________________________________________________________________
flatten_1 (Flatten)             (None, 384)          0           max_pooling1d_7[0][0]
__________________________________________________________________________________________________
dense_1 (Dense)                 (None, 1024)         394240      flatten_1[0][0]
__________________________________________________________________________________________________
dropout_3 (Dropout)             (None, 1024)         0           dense_1[0][0]
__________________________________________________________________________________________________
dense_2 (Dense)                 (None, 512)          524800      dropout_3[0][0]
__________________________________________________________________________________________________
dropout_4 (Dropout)             (None, 512)          0           dense_2[0][0]
__________________________________________________________________________________________________
dense_3 (Dense)                 (None, 20)           10260       dropout_4[0][0]
==================================================================================================
Total params: 10,182,536
Trainable params: 10,182,536
Non-trainable params: 0
__________________________________________________________________________________________________
Output:
Train on 11314 samples, validate on 7532 samples
Epoch 1/15
 - 6s - loss: 2.9329 - acc: 0.0783 - val_loss: 2.7628 - val_acc: 0.1403
…
model_RCNN.fit(X_train_Glove, y_train,
                              validation_data=(X_test_Glove, y_test),
                              epochs=15,
                              batch_size=128,
                              verbose=2)

predicted = model_RCNN.predict(X_test_Glove)

predicted = np.argmax(predicted, axis=1)
print(metrics.classification_report(y_test, predicted))
summary of the model:
_________________________________________________________________
Layer (type)                 Output Shape              Param #
=================================================================
embedding_1 (Embedding)      (None, 500, 50)           8960500
_________________________________________________________________
dropout_1 (Dropout)          (None, 500, 50)           0
_________________________________________________________________
conv1d_1 (Conv1D)            (None, 499, 256)          25856
_________________________________________________________________
max_pooling1d_1 (MaxPooling1 (None, 249, 256)          0
_________________________________________________________________
conv1d_2 (Conv1D)            (None, 248, 256)          131328
_________________________________________________________________
max_pooling1d_2 (MaxPooling1 (None, 124, 256)          0
_________________________________________________________________
conv1d_3 (Conv1D)            (None, 123, 256)          131328
_________________________________________________________________
max_pooling1d_3 (MaxPooling1 (None, 61, 256)           0
_________________________________________________________________
conv1d_4 (Conv1D)            (None, 60, 256)           131328
_________________________________________________________________
max_pooling1d_4 (MaxPooling1 (None, 30, 256)           0
_________________________________________________________________
lstm_1 (LSTM)                (None, 30, 256)           525312
_________________________________________________________________
lstm_2 (LSTM)                (None, 30, 256)           525312
_________________________________________________________________
lstm_3 (LSTM)                (None, 30, 256)           525312
_________________________________________________________________
lstm_4 (LSTM)                (None, 256)               525312
_________________________________________________________________
dense_1 (Dense)              (None, 1024)              263168
_________________________________________________________________
dense_2 (Dense)              (None, 20)                20500
_________________________________________________________________
activation_1 (Activation)    (None, 20)                0
=================================================================
Total params: 11,765,256
Trainable params: 11,765,256
Non-trainable params: 0
_________________________________________________________________
Output:
Train on 11314 samples, validate on 7532 samples
Epoch 1/15
 - 28s - loss: 2.6624 - acc: 0.1081 - val_loss: 2.3012 - val_acc: 0.1753
Epoch 2/15
 - 22s - loss: 2.1142 - acc: 0.2224 - val_loss: 1.9168 - val_acc: 0.2669
…
